…
  File ""C:\Users\pillai.k\MirrorEnv\lib\site-packages\nni\compression\speedup\mask_conflict.py"", line 400, in detect_mask_prune_dim
    sub_module = graph_module.get_submodule(layer_name)
  File ""C:\Users\pillai.k\MirrorEnv\lib\site-packages\torch\nn\modules\module.py"", line 686, in get_submodule
    raise AttributeError(mod._get_name() + "" has no ""
AttributeError: BFE_Module has no attribute `cbam`
```
This error occurs for the mask element `edge_extract.cbam.ChannelGate.mlp.1`. Given below is the model description for this module:
```
  (edge_extract): BFE_Module(
    (cbam): CBAM(
      (ChannelGate): ChannelGate(
        (mlp): Sequential(
          (0): Flatten()
          (1): Linear(in_features=56, out_features=3, bias=True)
          (2): ReLU(inplace=True)
          (3): Linear(in_features=3, out_features=56, bias=True)
        )
      )
      (SpatialGate): SpatialGate(
        (compress): ChannelPool()
        (spatial): BasicConv(
          (conv): Conv2d(1, 1, kernel_size=(7, 7), stride=(1, 1), padding=(3, 3), bias=False)
          (bn): BatchNorm2d(1, eps=1e-05, momentum=0.01, affine=True, track_running_stats=True)
        )
      )
    )
    (edge_layer1): Sequential(
      (0): Conv2d(56, 28, kernel_size=(1, 1), stride=(1, 1))
      (1): BatchNorm2d(28, eps=1e-05, momentum=0.1, affine=True, track_running_stats=True)
      (2): ReLU(inplace=True)
    )
    (edge_layer2): Sequential(
      (0): Conv2d(56, 28, kernel_size=(3, 3), stride=(1, 1))
      (1): BatchNorm2d(28, eps=1e-05, momentum=0.1, affine=True, track_running_stats=True)
      (2): ReLU(inplace=True)
    )
    (edge_layer3): Sequential(
      (0): Conv2d(56, 28, kernel_size=(3, 3), stride=(1, 1), dilation=(2, 2))
      (1): BatchNorm2d(28, eps=1e-05, momentum=0.1, affine=True, track_running_stats=True)
      (2): ReLU(inplace=True)
    )
    (edge_layer4): Sequential(
      (0): Conv2d(56, 28, kernel_size=(3, 3), stride=(1, 1), dilation=(4, 4))
      (1): BatchNorm2d(28, eps=1e-05, momentum=0.1, affine=True, track_running_stats=True)
      (2): ReLU(inplace=True)
    )
  ) 
```



**Environment**:
- NNI version:3.0
- Training service (local|remote|pai|aml|etc):local
- Python version: Python 3.9.4
- PyTorch version: 2.1.2
- Cpu or cuda version: cpu


**Reproduce the problem**
- Code|Example:
Model weights can be downloaded at https://drive.google.com/file/d/18zsqjK1aHVC4D8Ky530C--fwxdQylQ37/view?usp=sharing
…
        'granularity': [4, 4]
    }]
pruner = MovementPruner(model, config_list, evaluator, warmup_step=10, cooldown_begin_step=20, regular_scale=20)
pruner.compress(40, 4)
print(model)
pruner.unwrap_model()
masks = pruner.get_masks()
dummy_input = (torch.randint(0, 1, (32, 16, 1)).to(device).float(), torch.randint(0, 1, (32, 16, 1)).to(device).float())
# replacer = TransformersAttentionReplacer(model)
ModelSpeedup(model, dummy_input, masks).speedup_model()

- How to reproduce:
- this is my customed Transformer stucture I use it to predict time series

CustomTransformer(
  (embedding): Linear(in_features=1, out_features=64, bias=True)
  (positional_encoding): PositionalEncoding(
    (dropout): Dropout(p=0, inplace=False)
  )
  (encoder): Encoder(
    (encoder_layers): ModuleList(
      (0): Encoderlayer(
        (attention): AttentionLayer(
          (inner_attention): FullAttention(
            (dropout): Dropout(p=0.1, inplace=False)
          )
          (query_projection): Linear(in_features=64, out_features=64, bias=True)
          (key_projection): Linear(in_features=64, out_features=64, bias=True)
          (value_projection): Linear(in_features=64, out_features=64, bias=True)
          (out_projection): Linear(in_features=64, out_features=64, bias=True)
        )
        (norm1): LayerNorm((64,), eps=1e-05, elementwise_affine=True)
        (norm2): LayerNorm((64,), eps=1e-05, elementwise_affine=True)
        (linear): Linear(in_features=64, out_features=64, bias=True)
        (dropout): Dropout(p=0.1, inplace=False)
      )
    )
    (linear_layers): ModuleList(
      (0): Linear(in_features=64, out_features=64, bias=True)
    )
  )
  (decoder): Decoder(
    (decoder_layers): ModuleList(
      (0): Decoderlayer(
        (self_attention): AttentionLayer(
          (inner_attention): FullAttention(
            (dropout): Dropout(p=0.1, inplace=False)
          )
          (query_projection): Linear(in_features=64, out_features=64, bias=True)
          (key_projection): Linear(in_features=64, out_features=64, bias=True)
          (value_projection): Linear(in_features=64, out_features=64, bias=True)
          (out_projection): Linear(in_features=64, out_features=64, bias=True)
        )
        (cross_attention): AttentionLayer(
          (inner_attention): FullAttention(
            (dropout): Dropout(p=0.1, inplace=False)
          )
          (query_projection): Linear(in_features=64, out_features=64, bias=True)
          (key_projection): Linear(in_features=64, out_features=64, bias=True)
          (value_projection): Linear(in_features=64, out_features=64, bias=True)
          (out_projection): Linear(in_features=64, out_features=64, bias=True)
        )
        (norm1): LayerNorm((64,), eps=1e-05, elementwise_affine=True)
        (norm2): LayerNorm((64,), eps=1e-05, elementwise_affine=True)
        (norm3): LayerNorm((64,), eps=1e-05, elementwise_affine=True)
        (linear1): Linear(in_features=64, out_features=256, bias=True)
        (linear2): Linear(in_features=256, out_features=64, bias=True)
        (dropout): Dropout(p=0.1, inplace=False)
      )
    )
    (norm): LayerNorm((64,), eps=1e-05, elementwise_affine=True)
  )
  (fc_in): Linear(in_features=64, out_features=64, bias=True)
  (relu): ReLU()
  (dropout): Dropout(p=0.1, inplace=False)
  (fc_out): Linear(in_features=64, out_features=1, bias=True)
)",Cindytjj,66307396,open,True,0,2024-03-08T03:26:00+00:00,2024-03-08T03:26:00+00:00,,,0,0,0,0,0,0,0
microsoft/nni,2173672332,5752,Speedup bugfix: _output_randomize error,"### Description ###

When `NoMaskUpdater` `direct_update_process` is run with `collect_garbage_values` set to `True`, it leads to an error on the line containing `_output_randomize` which should be referring to the attribute `output_randomize`.
…
microsoft/nni,2021676133,5718,How to use cell to create a  Model Space ?,"I'm trying to use cell to create my Model Space but when I run the experiment, appears this  warning

 Cannot convert CategoricalMultiple([0, 1], n_chosen=1, label='[2, 3, 4, 5, 6]/input_2_0') to legacy format.",AlondraMM,152126153,open,True,0,2023-12-01T22:33:53+00:00,2023-12-02T04:59:28+00:00,,,0,0,0,0,0,0,0
microsoft/nni,2019227074,5717,after speed up the number of output dimention change,"**Describe the issue**:
i used nni.compression.speedup and after the speed uo the number of output featuears change from 10 to 5 featurears only!!!!

GoogLeNet(
  (conv1): BasicConv2d(
    (conv): Conv2d(3, 32, kernel_size=(7, 7), stride=(2, 2), padding=(3, 3), bias=False)
    (bn): BatchNorm2d(32, eps=0.001, momentum=0.1, affine=True, track_running_stats=True)
  )
  (maxpool1): MaxPool2d(kernel_size=3, stride=2, padding=0, dilation=1, ceil_mode=True)
  (conv2): BasicConv2d(
    (conv): Conv2d(32, 32, kernel_size=(1, 1), stride=(1, 1), bias=False)
    (bn): BatchNorm2d(32, eps=0.001, momentum=0.1, affine=True, track_running_stats=True)
  )
  (conv3): BasicConv2d(
    (conv): Conv2d(32, 96, kernel_size=(3, 3), stride=(1, 1), padding=(1, 1), bias=False)
    (bn): BatchNorm2d(96, eps=0.001, momentum=0.1, affine=True, track_running_stats=True)
  )
  (maxpool2): MaxPool2d(kernel_size=3, stride=2, padding=0, dilation=1, ceil_mode=True)
  (inception3a): Inception(
    (branch1): BasicConv2d(
      (conv): Conv2d(96, 32, kernel_size=(1, 1), stride=(1, 1), bias=False)
      (bn): BatchNorm2d(32, eps=0.001, momentum=0.1, affine=True, track_running_stats=True)
    )
    (branch2): Sequential(
      (0): BasicConv2d(
        (conv): Conv2d(96, 48, kernel_size=(1, 1), stride=(1, 1), bias=False)
        (bn): BatchNorm2d(48, eps=0.001, momentum=0.1, affine=True, track_running_stats=True)
      )
      (1): BasicConv2d(
        (conv): Conv2d(48, 64, kernel_size=(3, 3), stride=(1, 1), padding=(1, 1), bias=False)
        (bn): BatchNorm2d(64, eps=0.001, momentum=0.1, affine=True, track_running_stats=True)
      )
    )
    (branch3): Sequential(
      (0): BasicConv2d(
        (conv): Conv2d(96, 8, kernel_size=(1, 1), stride=(1, 1), bias=False)
        (bn): BatchNorm2d(8, eps=0.001, momentum=0.1, affine=True, track_running_stats=True)
      )
      (1): BasicConv2d(
        (conv): Conv2d(8, 16, kernel_size=(3, 3), stride=(1, 1), padding=(1, 1), bias=False)
        (bn): BatchNorm2d(16, eps=0.001, momentum=0.1, affine=True, track_running_stats=True)
      )
    )
    (branch4): Sequential(
      (0): MaxPool2d(kernel_size=3, stride=1, padding=1, dilation=1, ceil_mode=True)
      (1): BasicConv2d(
        (conv): Conv2d(96, 16, kernel_size=(1, 1), stride=(1, 1), bias=False)
        (bn): BatchNorm2d(16, eps=0.001, momentum=0.1, affine=True, track_running_stats=True)
      )
    )
  )
  (inception3b): Inception(
    (branch1): BasicConv2d(
      (conv): Conv2d(128, 64, kernel_size=(1, 1), stride=(1, 1), bias=False)
      (bn): BatchNorm2d(64, eps=0.001, momentum=0.1, affine=True, track_running_stats=True)
    )
    (branch2): Sequential(
      (0): BasicConv2d(
        (conv): Conv2d(128, 64, kernel_size=(1, 1), stride=(1, 1), bias=False)
        (bn): BatchNorm2d(64, eps=0.001, momentum=0.1, affine=True, track_running_stats=True)
      )
      (1): BasicConv2d(
        (conv): Conv2d(64, 96, kernel_size=(3, 3), stride=(1, 1), padding=(1, 1), bias=False)
        (bn): BatchNorm2d(96, eps=0.001, momentum=0.1, affine=True, track_running_stats=True)
      )
    )
    (branch3): Sequential(
      (0): BasicConv2d(
        (conv): Conv2d(128, 16, kernel_size=(1, 1), stride=(1, 1), bias=False)
        (bn): BatchNorm2d(16, eps=0.001, momentum=0.1, affine=True, track_running_stats=True)
      )
      (1): BasicConv2d(
        (conv): Conv2d(16, 48, kernel_size=(3, 3), stride=(1, 1), padding=(1, 1), bias=False)
        (bn): BatchNorm2d(48, eps=0.001, momentum=0.1, affine=True, track_running_stats=True)
      )
    )
    (branch4): Sequential(
      (0): MaxPool2d(kernel_size=3, stride=1, padding=1, dilation=1, ceil_mode=True)
      (1): BasicConv2d(
        (conv): Conv2d(128, 32, kernel_size=(1, 1), stride=(1, 1), bias=False)
        (bn): BatchNorm2d(32, eps=0.001, momentum=0.1, affine=True, track_running_stats=True)
      )
    )
  )
  (maxpool3): MaxPool2d(kernel_size=3, stride=2, padding=0, dilation=1, ceil_mode=True)
  (inception4a): Inception(
    (branch1): BasicConv2d(
      (conv): Conv2d(240, 96, kernel_size=(1, 1), stride=(1, 1), bias=False)
      (bn): BatchNorm2d(96, eps=0.001, momentum=0.1, affine=True, track_running_stats=True)
    )
    (branch2): Sequential(
      (0): BasicConv2d(
        (conv): Conv2d(240, 48, kernel_size=(1, 1), stride=(1, 1), bias=False)
        (bn): BatchNorm2d(48, eps=0.001, momentum=0.1, affine=True, track_running_stats=True)
      )
      (1): BasicConv2d(
        (conv): Conv2d(48, 104, kernel_size=(3, 3), stride=(1, 1), padding=(1, 1), bias=False)
        (bn): BatchNorm2d(104, eps=0.001, momentum=0.1, affine=True, track_running_stats=True)
      )
    )
    (branch3): Sequential(
      (0): BasicConv2d(
        (conv): Conv2d(240, 8, kernel_size=(1, 1), stride=(1, 1), bias=False)
        (bn): BatchNorm2d(8, eps=0.001, momentum=0.1, affine=True, track_running_stats=True)
      )
      (1): BasicConv2d(
        (conv): Conv2d(8, 24, kernel_size=(3, 3), stride=(1, 1), padding=(1, 1), bias=False)
        (bn): BatchNorm2d(24, eps=0.001, momentum=0.1, affine=True, track_running_stats=True)
      )
    )
    (branch4): Sequential(
      (0): MaxPool2d(kernel_size=3, stride=1, padding=1, dilation=1, ceil_mode=True)
      (1): BasicConv2d(
        (conv): Conv2d(240, 32, kernel_size=(1, 1), stride=(1, 1), bias=False)
        (bn): BatchNorm2d(32, eps=0.001, momentum=0.1, affine=True, track_running_stats=True)
      )
    )
  )
  (inception4b): Inception(
    (branch1): BasicConv2d(
      (conv): Conv2d(256, 80, kernel_size=(1, 1), stride=(1, 1), bias=False)
      (bn): BatchNorm2d(80, eps=0.001, momentum=0.1, affine=True, track_running_stats=True)
    )
    (branch2): Sequential(
      (0): BasicConv2d(
        (conv): Conv2d(256, 56, kernel_size=(1, 1), stride=(1, 1), bias=False)
        (bn): BatchNorm2d(56, eps=0.001, momentum=0.1, affine=True, track_running_stats=True)
      )
      (1): BasicConv2d(
        (conv): Conv2d(56, 112, kernel_size=(3, 3), stride=(1, 1), padding=(1, 1), bias=False)
        (bn): BatchNorm2d(112, eps=0.001, momentum=0.1, affine=True, track_running_stats=True)
      )
    )
    (branch3): Sequential(
      (0): BasicConv2d(
        (conv): Conv2d(256, 12, kernel_size=(1, 1), stride=(1, 1), bias=False)
        (bn): BatchNorm2d(12, eps=0.001, momentum=0.1, affine=True, track_running_stats=True)
      )
      (1): BasicConv2d(
        (conv): Conv2d(12, 32, kernel_size=(3, 3), stride=(1, 1), padding=(1, 1), bias=False)
        (bn): BatchNorm2d(32, eps=0.001, momentum=0.1, affine=True, track_running_stats=True)
      )
    )
    (branch4): Sequential(
      (0): MaxPool2d(kernel_size=3, stride=1, padding=1, dilation=1, ceil_mode=True)
      (1): BasicConv2d(
        (conv): Conv2d(256, 32, kernel_size=(1, 1), stride=(1, 1), bias=False)
        (bn): BatchNorm2d(32, eps=0.001, momentum=0.1, affine=True, track_running_stats=True)
      )
    )
  )
  (inception4c): Inception(
    (branch1): BasicConv2d(
      (conv): Conv2d(256, 64, kernel_size=(1, 1), stride=(1, 1), bias=False)
      (bn): BatchNorm2d(64, eps=0.001, momentum=0.1, affine=True, track_running_stats=True)
    )
    (branch2): Sequential(
      (0): BasicConv2d(
        (conv): Conv2d(256, 64, kernel_size=(1, 1), stride=(1, 1), bias=False)
        (bn): BatchNorm2d(64, eps=0.001, momentum=0.1, affine=True, track_running_stats=True)
      )
      (1): BasicConv2d(
        (conv): Conv2d(64, 128, kernel_size=(3, 3), stride=(1, 1), padding=(1, 1), bias=False)
        (bn): BatchNorm2d(128, eps=0.001, momentum=0.1, affine=True, track_running_stats=True)
      )
    )
    (branch3): Sequential(
      (0): BasicConv2d(
        (conv): Conv2d(256, 12, kernel_size=(1, 1), stride=(1, 1), bias=False)
        (bn): BatchNorm2d(12, eps=0.001, momentum=0.1, affine=True, track_running_stats=True)
      )
      (1): BasicConv2d(
        (conv): Conv2d(12, 32, kernel_size=(3, 3), stride=(1, 1), padding=(1, 1), bias=False)
        (bn): BatchNorm2d(32, eps=0.001, momentum=0.1, affine=True, track_running_stats=True)
      )
    )
    (branch4): Sequential(
      (0): MaxPool2d(kernel_size=3, stride=1, padding=1, dilation=1, ceil_mode=True)
      (1): BasicConv2d(
        (conv): Conv2d(256, 32, kernel_size=(1, 1), stride=(1, 1), bias=False)
        (bn): BatchNorm2d(32, eps=0.001, momentum=0.1, affine=True, track_running_stats=True)
      )
    )
  )
  (inception4d): Inception(
    (branch1): BasicConv2d(
      (conv): Conv2d(256, 56, kernel_size=(1, 1), stride=(1, 1), bias=False)
      (bn): BatchNorm2d(56, eps=0.001, momentum=0.1, affine=True, track_running_stats=True)
    )
    (branch2): Sequential(
      (0): BasicConv2d(
        (conv): Conv2d(256, 72, kernel_size=(1, 1), stride=(1, 1), bias=False)
        (bn): BatchNorm2d(72, eps=0.001, momentum=0.1, affine=True, track_running_stats=True)
      )
      (1): BasicConv2d(
        (conv): Conv2d(72, 144, kernel_size=(3, 3), stride=(1, 1), padding=(1, 1), bias=False)
        (bn): BatchNorm2d(144, eps=0.001, momentum=0.1, affine=True, track_running_stats=True)
      )
    )
    (branch3): Sequential(
      (0): BasicConv2d(
        (conv): Conv2d(256, 16, kernel_size=(1, 1), stride=(1, 1), bias=False)
        (bn): BatchNorm2d(16, eps=0.001, momentum=0.1, affine=True, track_running_stats=True)
      )
      (1): BasicConv2d(
        (conv): Conv2d(16, 32, kernel_size=(3, 3), stride=(1, 1), padding=(1, 1), bias=False)
        (bn): BatchNorm2d(32, eps=0.001, momentum=0.1, affine=True, track_running_stats=True)
      )
    )
    (branch4): Sequential(
      (0): MaxPool2d(kernel_size=3, stride=1, padding=1, dilation=1, ceil_mode=True)
      (1): BasicConv2d(
        (conv): Conv2d(256, 32, kernel_size=(1, 1), stride=(1, 1), bias=False)
        (bn): BatchNorm2d(32, eps=0.001, momentum=0.1, affine=True, track_running_stats=True)
      )
    )
  )
  (inception4e): Inception(
    (branch1): BasicConv2d(
      (conv): Conv2d(264, 128, kernel_size=(1, 1), stride=(1, 1), bias=False)
      (bn): BatchNorm2d(128, eps=0.001, momentum=0.1, affine=True, track_running_stats=True)
    )
    (branch2): Sequential(
      (0): BasicConv2d(
        (conv): Conv2d(264, 80, kernel_size=(1, 1), stride=(1, 1), bias=False)
        (bn): BatchNorm2d(80, eps=0.001, momentum=0.1, affine=True, track_running_stats=True)
      )
      (1): BasicConv2d(
        (conv): Conv2d(80, 160, kernel_size=(3, 3), stride=(1, 1), padding=(1, 1), bias=False)
        (bn): BatchNorm2d(160, eps=0.001, momentum=0.1, affine=True, track_running_stats=True)
      )
    )
    (branch3): Sequential(
      (0): BasicConv2d(
        (conv): Conv2d(264, 16, kernel_size=(1, 1), stride=(1, 1), bias=False)
        (bn): BatchNorm2d(16, eps=0.001, momentum=0.1, affine=True, track_running_stats=True)
      )
      (1): BasicConv2d(
        (conv): Conv2d(16, 64, kernel_size=(3, 3), stride=(1, 1), padding=(1, 1), bias=False)
        (bn): BatchNorm2d(64, eps=0.001, momentum=0.1, affine=True, track_running_stats=True)
      )
    )
    (branch4): Sequential(
      (0): MaxPool2d(kernel_size=3, stride=1, padding=1, dilation=1, ceil_mode=True)
      (1): BasicConv2d(
        (conv): Conv2d(264, 64, kernel_size=(1, 1), stride=(1, 1), bias=False)
        (bn): BatchNorm2d(64, eps=0.001, momentum=0.1, affine=True, track_running_stats=True)
      )
    )
  )
  (maxpool4): MaxPool2d(kernel_size=2, stride=2, padding=0, dilation=1, ceil_mode=True)
  (inception5a): Inception(
    (branch1): BasicConv2d(
      (conv): Conv2d(416, 128, kernel_size=(1, 1), stride=(1, 1), bias=False)
      (bn): BatchNorm2d(128, eps=0.001, momentum=0.1, affine=True, track_running_stats=True)
    )
    (branch2): Sequential(
      (0): BasicConv2d(
        (conv): Conv2d(416, 80, kernel_size=(1, 1), stride=(1, 1), bias=False)
        (bn): BatchNorm2d(80, eps=0.001, momentum=0.1, affine=True, track_running_stats=True)
      )
      (1): BasicConv2d(
        (conv): Conv2d(80, 160, kernel_size=(3, 3), stride=(1, 1), padding=(1, 1), bias=False)
        (bn): BatchNorm2d(160, eps=0.001, momentum=0.1, affine=True, track_running_stats=True)
      )
    )
    (branch3): Sequential(
      (0): BasicConv2d(
        (conv): Conv2d(416, 16, kernel_size=(1, 1), stride=(1, 1), bias=False)
        (bn): BatchNorm2d(16, eps=0.001, momentum=0.1, affine=True, track_running_stats=True)
      )
      (1): BasicConv2d(
        (conv): Conv2d(16, 64, kernel_size=(3, 3), stride=(1, 1), padding=(1, 1), bias=False)
        (bn): BatchNorm2d(64, eps=0.001, momentum=0.1, affine=True, track_running_stats=True)
      )
    )
    (branch4): Sequential(
      (0): MaxPool2d(kernel_size=3, stride=1, padding=1, dilation=1, ceil_mode=True)
      (1): BasicConv2d(
        (conv): Conv2d(416, 64, kernel_size=(1, 1), stride=(1, 1), bias=False)
        (bn): BatchNorm2d(64, eps=0.001, momentum=0.1, affine=True, track_running_stats=True)
      )
    )
  )
  (inception5b): Inception(
    (branch1): BasicConv2d(
      (conv): Conv2d(416, 192, kernel_size=(1, 1), stride=(1, 1), bias=False)
      (bn): BatchNorm2d(192, eps=0.001, momentum=0.1, affine=True, track_running_stats=True)
    )
    (branch2): Sequential(
      (0): BasicConv2d(
        (conv): Conv2d(416, 96, kernel_size=(1, 1), stride=(1, 1), bias=False)
        (bn): BatchNorm2d(96, eps=0.001, momentum=0.1, affine=True, track_running_stats=True)
      )
      (1): BasicConv2d(
        (conv): Conv2d(96, 192, kernel_size=(3, 3), stride=(1, 1), padding=(1, 1), bias=False)
        (bn): BatchNorm2d(192, eps=0.001, momentum=0.1, affine=True, track_running_stats=True)
      )
    )
    (branch3): Sequential(
      (0): BasicConv2d(
        (conv): Conv2d(416, 24, kernel_size=(1, 1), stride=(1, 1), bias=False)
        (bn): BatchNorm2d(24, eps=0.001, momentum=0.1, affine=True, track_running_stats=True)
      )
      (1): BasicConv2d(
        (conv): Conv2d(24, 64, kernel_size=(3, 3), stride=(1, 1), padding=(1, 1), bias=False)
        (bn): BatchNorm2d(64, eps=0.001, momentum=0.1, affine=True, track_running_stats=True)
      )
    )
    (branch4): Sequential(
      (0): MaxPool2d(kernel_size=3, stride=1, padding=1, dilation=1, ceil_mode=True)
      (1): BasicConv2d(
        (conv): Conv2d(416, 64, kernel_size=(1, 1), stride=(1, 1), bias=False)
        (bn): BatchNorm2d(64, eps=0.001, momentum=0.1, affine=True, track_running_stats=True)
      )
    )
  )
  (aux1): None
  (aux2): None
  (avgpool): AdaptiveAvgPool2d(output_size=(1, 1))
  (dropout): Dropout(p=0.2, inplace=False)
  (fc): Linear(in_features=512, out_features=5, bias=True)
)



**Environment**:
- NNI version:
- Training service (local|remote|pai|aml|etc):
- Client OS:
- Server OS (for remote mode only):
- Python version:
- PyTorch/TensorFlow version:
- Is conda/virtualenv/venv used?:
- Is running in Docker?:


**Configuration**:
 - Experiment config (remember to remove secrets!):
 - Search space:


**Log message**:
…
